src/models/model.onnx (onnx, 81123 bytes, 2 tensors)

feature_log_prob f4 [10000, 2]
00000000: 8123 1841 6e49 1441 9292 3241 8a6c 2e41
00000010: 3978 3b41 596d 7c41 8cd9 3c41 596d 7c41
00000020: 9292 3241 fcb6 4b41 59e6 3641 596d 7c41
00000030: 0e72 3041 af1d 3641 a058 1b41 ef86 1441
00000040: e419 8441 b40c 1641 10b1 1e41 a636 2241
00000050: 8191 2e41 596d 7c41 a905 3941 0393 2741
00000060: 87ef 3541 8f02 4141 4d07 4041 af1d 3641
00000070: f932 3a41 596d 7c41 da6d 2d41 1d13 3141
00000080: 064b 4941 8f02 4141 3978 3b41 9784 3d41
00000090: e419 8441 df97 1f41 e419 8441 061d 2141
000000a0: ccac 0241 73df 0141 4c53 f240 253f f040
000000b0: 3978 3b41 de40 3441 7259 3341 d095 3241
000000c0: a905 3941 8a6c 2e41 59e6 3641 9784 3d41
000000d0: f5db 2b41 0df3 1941 8f50 1a41 cab1 2f41
000000e0: 9292 3241 35a7 3a41 5bdd 1441 5eeb f440
000000f0: 0e72 3041 790e 2641 1a79 e140 1d13 3141
00000100: 87ef 3541 9784 3d41 ce8b 2041 d8f0 0941
00000110: 9f50 f440 f8b4 0e41 05dc 0841 3559 2541
00000120: dd0f 2041 9784 3d41 64e4 2a41 920f 5641
00000130: e419 8441 2897 2041 a905 3941 af1d 3641
00000140: e048 1841 9226 2c41 677b 1a41 de40 3441
00000150: 2de5 e940 1e50 e640 9e04 e840 d613 df40
00000160: 87ef 3541 4796 1341 0ec7 2641 1365 2341
00000170: 0e72 3041 fcb6 4b41 5cea 0841 8615 2041
00000180: dd0f 2041 fcb6 4b41 5591 1741 de40 3441
00000190: c4d9 1741 925e 1b41 5382 fc40 5b23 0441
000001a0: 9d6b 2441 0964 2841 bcd6 e440 e90e c740
000001b0: a46d 4641 91a7 1e41 01ed 3741 23cc 2641
000001c0: 87cb 2f41 bd7b 4541 006e 2a41 5497 1641
000001d0: c47b 1641 0b7c 1041 5e4d 2041 c972 0a41
000001e0: 9e0b 2141 ea1f 2b41 9292 3241 6939 3841
000001f0: 405c 3e41 8a6c 2e41 01d6 6141 12cb 2241
00000200: 3ce0 0d41 0d91 0241 e419 8441 2ea5 1841
00000210: 8cd9 3c41 3559 2541 2aa1 1441 2ea5 1841
00000220: b46b 0e41 fcb6 4b41 131e 2941 9784 3d41
00000230: dd17 2241 9784 3d41 a41f 3141 596d 7c41
00000240: bd06 3541 3a3f 2d41 4bb1 0841 9abb fa40
00000250: 2e88 f640 5910 0141 a41f 3141 925e 1b41
00000260: 405c 3e41 f8b4 0e41 3719 0341 fb64 0f41
00000270: b88f 0241 2e3f d640 abcf f840 9292 ed40
00000280: 3333 ee40 9ec6 f640 5bce 2341 596d 7c41
00000290: 782a 3441 8f02 4141 844c 2841 920f 5641
000002a0: 782a 3441 de40 3441 e419 8441 a457 1d41
000002b0: 7c59 ea40 cb54 f140 4d07 4041 bd7b 4541
000002c0: ec7d f040 32fb d840 fda9 0b41 21f6 1841
000002d0: 5e2b 1441 6e51 1641 e419 8441 f34a 1a41
000002e0: 015b f740 7e7e f540 2885 2741 6939 3841
000002f0: 06ec e140 a93e eb40 e419 8441 0df3 1941
00000300: 4e5e 2b41 8f02 4141 2f66 ce40 ec17 ae40
00000310: 0ec7 2641 6939 3841 ad07 1d41 af1d 3641
00000320: 405c 3e41 9784 3d41 9292 3241 6939 3841
00000330: e419 8441 6aa7 2141 a905 3941 596d 7c41
00000340: 405c 3e41 bd7b 4541 975d 2c41 bd7b 4541
00000350: 10b1 1e41 920f 5641 8cd9 3c41 bd7b 4541
00000360: da6d 2d41 8f02 4141 6e63 2541 fcb6 4b41
00000370: 935a 1041 8a6c 2e41 9ab8 0941 1d13 3141
00000380: 75e3 2c41 9226 2c41 ee0c 0141 0248 0841
00000390: 75e3 2c41 9226 2c41 844c 2841 6939 3841
000003a0: 9230 1941 23cc 2641 4d07 4041 920f 5641
000003b0: e419 8441 0964 2841 131e 2941 f7b3 d940
000003c0: 405c 3e41 35a7 3a41 e2f7 1241 8615 2041
000003d0: 8cd9 3c41 bd7b 4541 64e4 2a41 bd7b 4541
000003e0: 0125 2741 9fab 2441 782a 3441 9784 3d41
000003f0: bd06 3541 061d 2141 8142 1e41 ccd8 fa40
9.508668 9.267927 11.160784 10.901499 11.716851 15.776696 11.803112 15.776696
11.160784 12.732174 11.431237 15.776696 11.027845 11.382247 9.709137 9.282943
16.512642 9.378101 9.918228 10.138342 10.910523 15.776696 11.563882 10.473392
11.370978 12.063125 12.001782 11.382247 11.6374445 15.776696 10.839319 11.067166
12.580816 12.063125 11.716851 11.844871 16.512642 9.974578 16.512642 10.069586
8.167187 8.117053 7.572668 7.507708 11.716851 11.265837 11.209337 11.161575
11.563882 10.901499 11.431237 11.844871 10.7412 9.621839 9.644668 10.980906
11.160784 11.665822 9.304042 7.6537313 11.027845 10.378533 7.046033 11.067166
11.370978 11.844871 10.034132 8.6213 7.6348414 8.919182 8.553716 10.334279
10.003873 11.844871 10.680759 13.378801 16.512642 10.036903 11.563882 11.382247
9.517792 10.759417 9.655128 11.265837 7.3092256 7.19728 7.2505636 6.9711714
11.370978 9.224189 10.423597 10.212176 11.027845 12.732174 8.557217 10.005255
10.003873 12.732174 9.472981 11.265837 9.490665 9.710588 7.8909087 8.258632
10.276273 10.524423 7.1512127 6.22057 12.401768 9.91591 11.495362 10.424838
10.987189 12.34271 10.651855 9.411945 9.405216 9.030284 10.018888 8.653024
10.065336 10.6952915 11.160784 11.514016 11.897522 10.901499 14.114747 10.174578
8.867245 8.160413 16.512642 9.540327 11.803112 10.334279 9.289347 9.540327
8.901295 12.732174 10.569842 11.844871 10.130826 11.844871 11.070225 15.776696
11.314145 10.827936 8.543284 7.8354006 7.7041235 8.066491 11.070225 9.710588
11.897522 8.919182 8.193656 8.962153 8.160088 6.6952124 7.77535 7.424142
7.44375 7.7117453 10.23788 15.776696 11.260368 12.063125 10.518681 13.378801
11.260368 11.265837 16.512642 9.833897 7.3234234 7.5416007 12.001782 12.34271
7.5153713 6.7806635 8.729001 9.56009 9.260588 9.39488 16.512642 9.643298
7.729859 7.671691 10.470009 11.514016 7.0600615 7.351399 16.512642 9.621839
10.710524 12.063125 6.4499736 5.44042 10.423597 11.514016 9.814374 11.382247
11.897522 11.844871 11.160784 11.514016 16.512642 10.103373 11.563882 15.776696
11.897522 12.34271 10.772849 12.34271 9.918228 13.378801 11.803112 12.34271
10.839319 12.063125 10.336775 12.732174 9.022113 10.901499 8.607569 11.067166
10.8055315 10.759417 8.065657 8.51758 10.8055315 10.759417 10.518681 11.514016
9.574358 10.424838 12.001782 13.378801 16.512642 10.524423 10.569842 6.8032184
11.897522 11.665822 9.185518 10.005255 11.803112 12.34271 10.680759 12.34271
10.446534 10.2919 11.260368 11.844871 11.314145 10.069586 9.891236 7.8389645

class_log_prior f4 [1, 2]
00000000: c278 70bf a6d2 fdbe
-0.9393426 -0.49574775
